Found 50000 validated image filenames belonging to 31 classes.

Number of layers in basemodel: 339
Number of trainable layers: 0

Model: "sequential"
_________________________________________________________________
Layer (type)                 Output Shape              Param #   
=================================================================
efficientnetb2 (Functional)  (None, 2, 2, 1408)        7768569   
_________________________________________________________________
flatten (Flatten)            (None, 5632)              0         
_________________________________________________________________
dense (Dense)                (None, 128)               721024    
_________________________________________________________________
dense_1 (Dense)              (None, 31)                3999      
=================================================================
Total params: 8,493,592
Trainable params: 725,023
Non-trainable params: 7,768,569
_________________________________________________________________
None
Found 50000 validated image filenames belonging to 31 classes.

Number of layers in basemodel: 339
Number of trainable layers: 0

Model: "sequential_1"
_________________________________________________________________
Layer (type)                 Output Shape              Param #   
=================================================================
efficientnetb2 (Functional)  (None, 2, 2, 1408)        7768569   
_________________________________________________________________
flatten_1 (Flatten)          (None, 5632)              0         
_________________________________________________________________
dense_2 (Dense)              (None, 128)               721024    
_________________________________________________________________
dense_3 (Dense)              (None, 31)                3999      
=================================================================
Total params: 8,493,592
Trainable params: 725,023
Non-trainable params: 7,768,569
_________________________________________________________________
results_thesis/101_undersample__bs_512/checkpoints/cp-0004.ckpt
Predicting on test set:

1563/1563 - 117s
METRICS FOR THRESHOLD 0.5

Mean number of label assignments per image in ground-truth: 2.3975
…
