Found 45000 validated image filenames belonging to 28 classes.
creating model
creating model
creating model

Number of layers in basemodel: 339
Model: "sequential"
_________________________________________________________________
Layer (type)                 Output Shape              Param #   
=================================================================
efficientnetb2 (Functional)  (None, 2, 2, 1408)        7768569   
_________________________________________________________________
flatten (Flatten)            (None, 5632)              0         
_________________________________________________________________
dense (Dense)                (None, 128)               721024    
_________________________________________________________________
dense_1 (Dense)              (None, 28)                3612      
=================================================================
Total params: 8,493,205
Trainable params: 8,425,630
Non-trainable params: 67,575
_________________________________________________________________
creating model

Number of layers in basemodel: 339
Model: "sequential_1"
_________________________________________________________________
Layer (type)                 Output Shape              Param #   
=================================================================
efficientnetb2 (Functional)  (None, 2, 2, 1408)        7768569   
_________________________________________________________________
flatten_1 (Flatten)          (None, 5632)              0         
_________________________________________________________________
dense_2 (Dense)              (None, 128)               721024    
_________________________________________________________________
dense_3 (Dense)              (None, 28)                3612      
=================================================================
Total params: 8,493,205
Trainable params: 8,425,630
Non-trainable params: 67,575
_________________________________________________________________
Predicting on test set:

704/704 [==============================] - 755s 1s/step
finished predicting
Found 22500 validated image filenames belonging to 28 classes.
Predicting on validation set:
…
