Found 760000 non-validated image filenames belonging to 42 classes.
Found 752497 validated image filenames belonging to 20 classes.

Number of layers in basemodel: 339
Number of trainable layers: 0

Model: "sequential"
_________________________________________________________________
Layer (type)                 Output Shape              Param #   
=================================================================
efficientnetb2 (Functional)  (None, 2, 2, 1408)        7768569   
_________________________________________________________________
flatten (Flatten)            (None, 5632)              0         
_________________________________________________________________
dense (Dense)                (None, 128)               721024    
_________________________________________________________________
dense_1 (Dense)              (None, 20)                2580      
=================================================================
Total params: 8,492,173
Trainable params: 723,604
Non-trainable params: 7,768,569
_________________________________________________________________

Number of layers in basemodel: 339
Number of trainable layers: 0

Model: "sequential_1"
_________________________________________________________________
Layer (type)                 Output Shape              Param #   
=================================================================
efficientnetb2 (Functional)  (None, 2, 2, 1408)        7768569   
_________________________________________________________________
flatten_1 (Flatten)          (None, 5632)              0         
_________________________________________________________________
dense_2 (Dense)              (None, 128)               721024    
_________________________________________________________________
dense_3 (Dense)              (None, 20)                2580      
=================================================================
Total params: 8,492,173
Trainable params: 723,604
Non-trainable params: 7,768,569
_________________________________________________________________
Found 50000 non-validated image filenames belonging to 40 classes.
Found 49514 validated image filenames belonging to 20 classes.
1548/1548 - 94s

Number of layers in basemodel: 339
Number of trainable layers: 0

Model: "sequential_2"
_________________________________________________________________
Layer (type)                 Output Shape              Param #   
=================================================================
efficientnetb2 (Functional)  (None, 2, 2, 1408)        7768569   
_________________________________________________________________
flatten_2 (Flatten)          (None, 5632)              0         
_________________________________________________________________
dense_4 (Dense)              (None, 128)               721024    
_________________________________________________________________
dense_5 (Dense)              (None, 20)                2580      
=================================================================
Total params: 8,492,173
Trainable params: 723,604
Non-trainable params: 7,768,569
_________________________________________________________________
Found 50000 non-validated image filenames belonging to 40 classes.
WARNING:tensorflow:Unresolved object in checkpoint: (root).optimizer.iter
WARNING:tensorflow:Unresolved object in checkpoint: (root).optimizer.beta_1
…
